…
 'learning_rate': 0.01,
 'lradj': 'type1',
 'model': 'Transformer',
 'model_id': 'DIEF',
 'moving_avg': 25,
 'n_heads': 8,
 'num_kernels': 6,
 'num_workers': 10,
 'output_attention': False,
 'patience': 30,
 'pos_weight': 50,
 'pred_len': 240,
 'root_path': '/scratch/hn98/ap8021/DIEF/dataset/',
 'seed': 0,
 'seg_len': 48,
 'seq_len': 336,
 'task_name': 'classification',
 'test_run': False,
 'top_k': 3,
 'train_epochs': 100,
 'use_amp': False,
 'use_gpu': True,
 'use_multi_gpu': False,
 'use_norm': 1}
Use GPU: cuda:0
Model(
  (enc_embedding): DataEmbedding(
    (value_embedding): TokenEmbedding(
      (tokenConv): Conv1d(4, 128, kernel_size=(3,), stride=(1,), padding=(1,), bias=False, padding_mode=circular)
    )
    (position_embedding): PositionalEmbedding()
    (temporal_embedding): TimeFeatureEmbedding(
      (embed): Linear(in_features=4, out_features=128, bias=False)
    )
    (dropout): Dropout(p=0.1, inplace=False)
  )
  (encoder): Encoder(
    (attn_layers): ModuleList(
      (0-2): 3 x EncoderLayer(
        (attention): AttentionLayer(
          (inner_attention): FullAttention(
            (dropout): Dropout(p=0.1, inplace=False)
          )
          (query_projection): Linear(in_features=128, out_features=128, bias=True)
          (key_projection): Linear(in_features=128, out_features=128, bias=True)
          (value_projection): Linear(in_features=128, out_features=128, bias=True)
          (out_projection): Linear(in_features=128, out_features=128, bias=True)
        )
        (conv1): Conv1d(128, 256, kernel_size=(1,), stride=(1,))
        (conv2): Conv1d(256, 128, kernel_size=(1,), stride=(1,))
        (norm1): LayerNorm((128,), eps=1e-05, elementwise_affine=True)
        (norm2): LayerNorm((128,), eps=1e-05, elementwise_affine=True)
        (dropout): Dropout(p=0.1, inplace=False)
      )
    )
    (norm): LayerNorm((128,), eps=1e-05, elementwise_affine=True)
  )
  (dropout): Dropout(p=0.1, inplace=False)
  (projection): Linear(in_features=43008, out_features=240, bias=True)
)
>>>>>>>start training : >>>>>>>>>>>>>>>>>>>>>>>>>>
datasetDIEF_rs4H: TRAIN : Has Y label.
datasetDIEF_rs4H: VALI : Has Y label.
	iters: 100, epoch: 1 | loss: 1.0157893
	speed: 0.1358s/iter; left time: 2390.2551s
  Accuracy  | Precision  |   Recall   |     F1     |    mAP     
    0.610306    0.0111841     0.337664    0.0197577    0.0124093
Validation loss decreased (inf --> 1.095082).  Saving model ...
…
